
(im2latex) y182202010@amax-server:/data/182202010/yhlatex$ python train.py -model_type rc -data data/large -save_model results/rowcol/rowcol -gpu_ranks 0 -batch_size 20 -max_grad_norm 20 -learning_rate 0.1 -word_vec_size 80 -encoder_type brnn -image_channel_size 3 -train_steps 100000
[2020-02-24 22:27:21,043 INFO]  * tgt vocab size = 503
[2020-02-24 22:27:21,043 INFO] Building model...
[2020-02-24 22:27:24,466 INFO] NMTModel(
  (encoder): RCEncoder(
    (layer1): Conv2d(3, 64, kernel_size=(3, 3), stride=(1, 1), padding=(1, 1))
    (layer2): Conv2d(64, 128, kernel_size=(3, 3), stride=(1, 1), padding=(1, 1))
    (layer3): Conv2d(128, 256, kernel_size=(3, 3), stride=(1, 1), padding=(1, 1))
    (layer4): Conv2d(256, 256, kernel_size=(3, 3), stride=(1, 1), padding=(1, 1))
    (layer5): Conv2d(256, 512, kernel_size=(3, 3), stride=(1, 1), padding=(1, 1))
    (layer6): Conv2d(512, 512, kernel_size=(3, 3), stride=(1, 1), padding=(1, 1))
    (batch_norm1): BatchNorm2d(256, eps=1e-05, momentum=0.1, affine=True, track_running_stats=True)
    (batch_norm2): BatchNorm2d(512, eps=1e-05, momentum=0.1, affine=True, track_running_stats=True)
    (batch_norm3): BatchNorm2d(512, eps=1e-05, momentum=0.1, affine=True, track_running_stats=True)
    (rnn): LSTM(512, 256, num_layers=2, dropout=0.3, bidirectional=True)
    (rnn2): LSTM(512, 128, num_layers=2, dropout=0.3, bidirectional=True)
  )
  (decoder): InputFeedRNNDecoder(
    (embeddings): Embeddings(
      (make_embedding): Sequential(
        (emb_luts): Elementwise(
          (0): Embedding(503, 80, padding_idx=1)
        )
      )
    )
    (dropout): Dropout(p=0.3, inplace=False)
    (rnn): StackedLSTM(
      (dropout): Dropout(p=0.3, inplace=False)
      (layers): ModuleList(
        (0): LSTMCell(848, 768)
        (1): LSTMCell(768, 768)
      )
    )
    (attn): GlobalAttention(
      (linear_in): Linear(in_features=768, out_features=768, bias=False)
      (linear_out): Linear(in_features=1536, out_features=768, bias=False)
    )
  )
  (generator): Sequential(
    (0): Linear(in_features=768, out_features=503, bias=True)
    (1): Cast()
    (2): LogSoftmax()
  )
)
[2020-02-24 22:27:24,468 INFO] encoder: 8710016
[2020-02-24 22:27:24,468 INFO] decoder: 11891751
[2020-02-24 22:27:24,468 INFO] * number of parameters: 20601767
[2020-02-24 22:27:24,470 INFO] Starting training on GPU: [0]
[2020-02-24 22:27:24,470 INFO] Start training loop and validate every 10000 steps...
[2020-02-24 22:27:24,470 INFO] Loading dataset from data/large.train.0.pt
…
[1]+  已停止               python train.py -model_type rc -data data/large -save_model results/rowcol/rowcol -gpu_ranks 0 -batch_size 20 -max_grad_norm 20 -learning_rate 0.1 -word_vec_size 80 -encoder_type brnn -image_channel_size 3 -train_steps 100000
(im2latex) y182202010@amax-server:/data/182202010/yhlatex$ kill -9 39150
(im2latex) y182202010@amax-server:/data/182202010/yhlatex$ python train.py -model_type rc -data data/large -save_model results/rowcol/rowcol -gpu_ranks 0 -batch_size 20 -max_grad_norm 20 -learning_rate 0.1 -word_vec_size 80 -encoder_type brnn -image_channel_size 3 -train_steps 100000 -multi_scale
[2020-02-24 22:28:26,565 INFO]  * tgt vocab size = 503
[2020-02-24 22:28:26,565 INFO] Building model...
[2020-02-24 22:28:29,772 INFO] NMTModel(
  (encoder): RCEncoder(
    (layer1): Conv2d(3, 64, kernel_size=(3, 3), stride=(1, 1), padding=(1, 1))
    (layer2): Conv2d(64, 128, kernel_size=(3, 3), stride=(1, 1), padding=(1, 1))
    (layer3): Conv2d(128, 256, kernel_size=(3, 3), stride=(1, 1), padding=(1, 1))
    (layer4): Conv2d(256, 256, kernel_size=(3, 3), stride=(1, 1), padding=(1, 1))
    (layer5): Conv2d(256, 512, kernel_size=(3, 3), stride=(1, 1), padding=(1, 1))
    (layer6): Conv2d(512, 512, kernel_size=(3, 3), stride=(1, 1), padding=(1, 1))
    (batch_norm1): BatchNorm2d(256, eps=1e-05, momentum=0.1, affine=True, track_running_stats=True)
    (batch_norm2): BatchNorm2d(512, eps=1e-05, momentum=0.1, affine=True, track_running_stats=True)
    (batch_norm3): BatchNorm2d(512, eps=1e-05, momentum=0.1, affine=True, track_running_stats=True)
    (rnn): LSTM(512, 256, num_layers=2, dropout=0.3, bidirectional=True)
    (rnn2): LSTM(512, 128, num_layers=2, dropout=0.3, bidirectional=True)
  )
  (decoder): MultiRNNDecoder(
    (embeddings): Embeddings(
      (make_embedding): Sequential(
        (emb_luts): Elementwise(
          (0): Embedding(503, 80, padding_idx=1)
        )
      )
    )
    (dropout): Dropout(p=0.3, inplace=False)
    (rnn): StackedLSTM(
      (dropout): Dropout(p=0.3, inplace=False)
      (layers): ModuleList(
        (0): LSTMCell(848, 768)
        (1): LSTMCell(768, 768)
      )
    )
    (linear_out): Linear(in_features=1536, out_features=768, bias=False)
    (attn): MultiAttention(
      (linear_in): Linear(in_features=768, out_features=512, bias=False)
      (linear_out): Linear(in_features=1536, out_features=512, bias=False)
    )
    (attn2): MultiAttention(
      (linear_in): Linear(in_features=768, out_features=256, bias=False)
      (linear_out): Linear(in_features=1536, out_features=256, bias=False)
    )
  )
  (generator): Sequential(
    (0): Linear(in_features=768, out_features=503, bias=True)
    (1): Cast()
    (2): LogSoftmax()
  )
)
[2020-02-24 22:28:29,774 INFO] encoder: 8710016
[2020-02-24 22:28:29,774 INFO] decoder: 13071399
[2020-02-24 22:28:29,774 INFO] * number of parameters: 21781415
[2020-02-24 22:28:29,775 INFO] Starting training on GPU: [0]
[2020-02-24 22:28:29,776 INFO] Start training loop and validate every 10000 steps...
[2020-02-24 22:28:29,776 INFO] Loading dataset from data/large.train.0.pt
…
