…
(im2latex) y182202010@amax-server:/data/182202010/yhlatex/results/rowcol$ cd ..
(im2latex) y182202010@amax-server:/data/182202010/yhlatex/results$ cd ..
(im2latex) y182202010@amax-server:/data/182202010/yhlatex$ python train.py -model_type rc -data data/large -save_model results/rowcol/rowcol -gpu_ranks 0 -batch_size 20 -max_grad_norm 20 -learning_rate 0.1 -word_vec_size 80 -encoder_type brnn -image_channel_size 3 -train_steps 100000
[2020-02-21 20:13:32,736 INFO]  * tgt vocab size = 503
[2020-02-21 20:13:32,736 INFO] Building model...
[2020-02-21 20:13:37,027 INFO] NMTModel(
  (encoder): RCEncoder(
    (layer1): Conv2d(3, 64, kernel_size=(3, 3), stride=(1, 1), padding=(1, 1))
    (layer2): Conv2d(64, 128, kernel_size=(3, 3), stride=(1, 1), padding=(1, 1))
    (layer3): Conv2d(128, 256, kernel_size=(3, 3), stride=(1, 1), padding=(1, 1))
    (layer4): Conv2d(256, 256, kernel_size=(3, 3), stride=(1, 1), padding=(1, 1))
    (layer5): Conv2d(256, 512, kernel_size=(3, 3), stride=(1, 1), padding=(1, 1))
    (layer6): Conv2d(512, 512, kernel_size=(3, 3), stride=(1, 1), padding=(1, 1))
    (batch_norm1): BatchNorm2d(256, eps=1e-05, momentum=0.1, affine=True, track_running_stats=True)
    (batch_norm2): BatchNorm2d(512, eps=1e-05, momentum=0.1, affine=True, track_running_stats=True)
    (batch_norm3): BatchNorm2d(512, eps=1e-05, momentum=0.1, affine=True, track_running_stats=True)
    (rnn): LSTM(512, 256, num_layers=2, dropout=0.3, bidirectional=True)
    (rnn2): LSTM(512, 256, num_layers=2, dropout=0.3, bidirectional=True)
    (trans1): Transition(
      (bn1): BatchNorm2d(1024, eps=1e-05, momentum=0.1, affine=True, track_running_stats=True)
      (conv1): Conv2d(1024, 512, kernel_size=(1, 1), stride=(1, 1), bias=False)
    )
    (pos_lut): Embedding(1000, 512)
  )
  (decoder): InputFeedRNNDecoder(
    (embeddings): Embeddings(
      (make_embedding): Sequential(
        (emb_luts): Elementwise(
          (0): Embedding(503, 80, padding_idx=1)
        )
      )
    )
    (dropout): Dropout(p=0.3, inplace=False)
    (rnn): StackedLSTM(
      (dropout): Dropout(p=0.3, inplace=False)
      (layers): ModuleList(
        (0): LSTMCell(592, 512)
        (1): LSTMCell(512, 512)
      )
    )
    (attn): GlobalAttention(
      (linear_in): Linear(in_features=512, out_features=512, bias=False)
      (linear_out): Linear(in_features=1024, out_features=512, bias=False)
    )
  )
  (generator): Sequential(
    (0): Linear(in_features=512, out_features=503, bias=True)
    (1): Cast()
    (2): LogSoftmax()
  )
)
[2020-02-21 20:13:37,029 INFO] encoder: 11849600
[2020-02-21 20:13:37,029 INFO] decoder: 5451047
[2020-02-21 20:13:37,029 INFO] * number of parameters: 17300647
[2020-02-21 20:13:37,033 INFO] Starting training on GPU: [0]
[2020-02-21 20:13:37,033 INFO] Start training loop and validate every 10000 steps...
[2020-02-21 20:13:37,034 INFO] Loading dataset from data/large.train.0.pt
…
                [--image_channel_size {3,1}]
train.py: error: the following arguments are required: --dec_layers/-dec_layers
(im2latex) y182202010@amax-server:/data/182202010/yhlatex$ python train.py -model_type img -data data/large -save_model results/multi/multi_scale -gpu_ranks 0 -batch_size 20 -max_grad_norm 20 -learning_rate 0.1 -word_vec_size 80 -encoder_type brnn -image_channel_size 3 -train_steps 100000 -dec_layers 2 -multi_scale
[2020-02-22 20:14:15,408 INFO]  * tgt vocab size = 503
[2020-02-22 20:14:15,408 INFO] Building model...
[2020-02-22 20:14:19,175 INFO] NMTModel(
  (encoder): ImageEncoder(
    (layer1): Conv2d(3, 64, kernel_size=(3, 3), stride=(1, 1), padding=(1, 1))
    (layer2): Conv2d(64, 128, kernel_size=(3, 3), stride=(1, 1), padding=(1, 1))
    (layer3): Conv2d(128, 256, kernel_size=(3, 3), stride=(1, 1), padding=(1, 1))
    (layer4): Conv2d(256, 256, kernel_size=(3, 3), stride=(1, 1), padding=(1, 1))
    (layer5): Conv2d(256, 512, kernel_size=(3, 3), stride=(1, 1), padding=(1, 1))
    (layer6): Conv2d(512, 512, kernel_size=(3, 3), stride=(1, 1), padding=(1, 1))
    (batch_norm1): BatchNorm2d(256, eps=1e-05, momentum=0.1, affine=True, track_running_stats=True)
    (batch_norm2): BatchNorm2d(512, eps=1e-05, momentum=0.1, affine=True, track_running_stats=True)
    (batch_norm3): BatchNorm2d(512, eps=1e-05, momentum=0.1, affine=True, track_running_stats=True)
    (rnn): LSTM(512, 256, num_layers=2, dropout=0.3, bidirectional=True)
    (rnn2): LSTM(256, 128, num_layers=2, dropout=0.3, bidirectional=True)
    (pos_lut): Embedding(1000, 256)
  )
  (decoder): MultiRNNDecoder(
    (embeddings): Embeddings(
      (make_embedding): Sequential(
        (emb_luts): Elementwise(
          (0): Embedding(503, 80, padding_idx=1)
        )
      )
    )
    (dropout): Dropout(p=0.3, inplace=False)
    (rnn): StackedLSTM(
      (dropout): Dropout(p=0.3, inplace=False)
      (layers): ModuleList(
        (0): LSTMCell(848, 768)
        (1): LSTMCell(768, 768)
      )
    )
    (linear_out): Linear(in_features=1536, out_features=768, bias=False)
    (attn): MultiAttention(
      (linear_in): Linear(in_features=768, out_features=256, bias=False)
      (linear_out): Linear(in_features=1536, out_features=256, bias=False)
    )
    (attn2): MultiAttention(
      (linear_in): Linear(in_features=768, out_features=512, bias=False)
      (linear_out): Linear(in_features=1536, out_features=512, bias=False)
    )
  )
  (generator): Sequential(
    (0): Linear(in_features=768, out_features=503, bias=True)
    (1): Cast()
    (2): LogSoftmax()
  )
)
[2020-02-22 20:14:19,177 INFO] encoder: 8703872
[2020-02-22 20:14:19,177 INFO] decoder: 13071399
[2020-02-22 20:14:19,177 INFO] * number of parameters: 21775271
[2020-02-22 20:14:19,180 INFO] Starting training on GPU: [0]
[2020-02-22 20:14:19,180 INFO] Start training loop and validate every 10000 steps...
[2020-02-22 20:14:19,181 INFO] Loading dataset from data/large.train.0.pt
…
